titanic_model.pth (torch, 74397 bytes, 5 tensors)

network.0.weight f4 [128, 8]
0	0xbebb9894	-0.36639845
1	0x3cb7343b	0.022363773
2	0xbe74b1fd	-0.23896022
3	0x3e8c5ff2	0.2741695
4	0x3e2162e8	0.15760386
5	0xbe4eb06e	-0.2018449
6	0x3dd3068b	0.10303982
7	0x3eb7bf56	0.35888165
8	0x3c97b366	0.018518161
9	0xbd6283c7	-0.055301454
10	0x3df8569d	0.12125895
11	0xbdf595eb	-0.11991485
12	0xbe64d21d	-0.22345777
13	0xbe9cd842	-0.30633742
14	0xbe61eb55	-0.22062428
15	0x3e8259b6	0.2545907
16	0xbdf4e476	-0.11957638
17	0x3dec155f	0.11527514
18	0xbec3fe14	-0.38279784
19	0xbdc548ea	-0.09633048
20	0xbe021123	-0.1270185
21	0x3ea9aff6	0.3314206
22	0xbe4ad40f	-0.19807456
23	0x3e362705	0.17788322
24	0xbca17903	-0.019711023
25	0xbd42a64d	-0.047521878
26	0x3cf77e42	0.030211572
27	0xbeba2248	-0.3635428
28	0xbe718f38	-0.2358979
29	0xbd415cb1	-0.047207538
30	0x3bd4b93e	0.006491809
31	0x3ebbae80	0.3665657
32	0xbe8ee2d0	-0.2790742
33	0x3eb61c4a	0.35568458
34	0xbe6f62b4	-0.23377496
35	0x3de8a0d7	0.11358803
36	0xbe1eacbd	-0.15495582
37	0xbe18e215	-0.14929993
38	0x3e3117a1	0.1729417
39	0x3e9ef36b	0.31045088
40	0xbe5067ba	-0.20352069
41	0xbebbcbd6	-0.36678952
42	0xbe52f295	-0.2060035
43	0xbe381694	-0.17977363
44	0xbde26cd9	-0.11055917
45	0x3d69abbf	0.057048555
46	0x3e532c95	0.20622475
47	0xbe3efd42	-0.18651298
48	0xbdcfe49f	-0.10151028
49	0x3e86354c	0.26212537
50	0x3e11c0eb	0.14233749
51	0x3d84bad2	0.06480946
52	0x3c1708e5	0.009218429
53	0xbe6881c2	-0.22705749
54	0x3e81dce8	0.2536385
55	0xbd85a53d	-0.06525657
56	0x3e8e94ca	0.27847892
57	0x3e880011	0.2656255
58	0x3eb14116	0.3461997
59	0x3d49933a	0.04921267
60	0xbe999019	-0.2999275
61	0x3e639759	0.22225703
62	0xbdce0d88	-0.10061175
63	0x3e27fd4b	0.16405217
64	0x3e01f7db	0.12692206
65	0xbeae03ed	-0.3398737
66	0xbe9c61cc	-0.30543363
67	0xbe15aa48	-0.14615738
68	0x3e82fdd8	0.25584292
69	0xbc8956c1	-0.016765
70	0x3d7e2d8f	0.062055167
71	0x3dbef78a	0.09324558
72	0x3e85664b	0.26054606
73	0xbe3b5a3e	-0.18296143
74	0xbe98403e	-0.29736513
75	0xbeb48843	-0.3526021
76	0xbe931976	-0.28730363
77	0x3e90d6b3	0.28288803
78	0xbb3847ef	-0.0028119048
79	0xbd63d95c	-0.055627212
80	0xbe2e24d1	-0.17006232
81	0x3d8834e6	0.066507146
82	0xbe6e3019	-0.23260535
83	0x3e81905b	0.25305447
84	0x3daf53c3	0.08560898
85	0xbea70098	-0.3261764
86	0xbe90d431	-0.2828689
87	0xbd745240	-0.059648752
88	0xbe2bf6fa	-0.16793433
89	0xbd979ed2	-0.074033394
90	0x3e152bd6	0.14567503
91	0xbe5f47b6	-0.218047
92	0xbe62dba0	-0.22154093
93	0x3e8f832e	0.2802977
94	0x3e64cbf5	0.22343428
95	0x3e374b21	0.17899753
96	0x3e7fb1a4	0.24970108
97	0x3ece7ca3	0.40329465
98	0x3d574bfb	0.052562695
99	0xbddcb564	-0.10776785
100	0x3e9b239b	0.30300602
101	0xbe8cffcf	-0.27538916
102	0xbea35f07	-0.31908438
103	0xbdb762a6	-0.089543626
104	0x3eb09bc4	0.3449384
105	0x3e384e21	0.17998554
106	0xbb6e59a9	-0.003636936
107	0x3e891349	0.26772526
108	0x3dca19c7	0.09868198
109	0xbe18d87e	-0.14926335
110	0xbe5d22f8	-0.21595371
111	0x3e6f26b4	0.23354608
112	0xbe9c0c33	-0.30478057
113	0x3e509585	0.20369537
114	0x3df28344	0.11841443
115	0xbdf83628	-0.121197045
116	0x3e9c549e	0.30533308
117	0xbe375cc6	-0.17906484
118	0x3d18e15e	0.037324302
119	0xbe8a04c1	-0.26956752
120	0x3dd4288f	0.103592984
121	0x3e77d9e1	0.24204208
122	0x3de87df9	0.113521524
123	0xbe90270f	-0.281548
124	0x3e348788	0.17629826
125	0x3ec0d050	0.3765893
126	0x3e8db42f	0.27676532
127	0x3ec4c0a3	0.3842822
128	0x3e7b8209	0.24561323
129	0x3e137086	0.14398393
130	0x3eaa8440	0.33304024
131	0x3e3b6e2a	0.18303743
132	0xbe70092b	-0.23440997
133	0xbe96a728	-0.29424405
134	0xbd00d51d	-0.03145324
135	0xbda6f8b6	-0.081529066
136	0xbea75da5	-0.32688633
137	0x3e4bc3e1	0.1989894
138	0x3e81d6ee	0.2535929
139	0x3e52e49e	0.20595023
140	0xbe55ed63	-0.20891337
141	0xbe72a9ad	-0.23697539
142	0xbe844e71	-0.25841096
143	0x3dfd2423	0.12360408
144	0x3dcde51d	0.100534655
145	0x3e8c561b	0.27409443
146	0xbe844fca	-0.25842124
147	0x3ba47868	0.0050192364
148	0xbeb73cfb	-0.35788712
149	0x3e0c2dba	0.13689318
150	0x3dfded52	0.12398781
151	0x3e847a63	0.25874624
152	0x3d747c89	0.05968908
153	0x3ca3a8cd	0.019977951
154	0x3e419944	0.18906122
155	0x3ea8161f	0.32829377
156	0xbe9046d6	-0.28179044
157	0x3d6a93c9	0.057269845
158	0x3c0934cc	0.008374404
159	0x3e5ab929	0.21359695
160	0x3e86bb57	0.26314804
161	0x3e14b239	0.14521112
162	0x3e64dd48	0.22350037
163	0x3ec8db44	0.39229786
164	0xbcda5490	-0.02665165
165	0x3e696e48	0.22795975
166	0x3ea6bac8	0.32564378
167	0x3dd94ed6	0.1061074
168	0xbeb2ab87	-0.3489649
169	0xbd9a9f19	-0.07549877
170	0x3e935e8c	0.2878307
171	0xbdda2da0	-0.106532335
172	0x3d723631	0.059133712
173	0xbe783c63	-0.24241786
174	0x3d4f2f92	0.050582476
175	0x3e4313ab	0.19050471
176	0xbc43560b	-0.01192237
177	0x3eb5466c	0.3540529
178	0xbe8a7ac1	-0.2704678
179	0xbde48d2a	-0.111597374
180	0x3deb7ba9	0.11498196
181	0xbe92a0e1	-0.28638366
182	0xbed0ebaf	-0.40804812
183	0x3e807cfe	0.2509536
184	0xbebaee2d	-0.3650984
185	0x3e0651e4	0.13117176
186	0xbedbb383	-0.42910394
187	0x3eafe95d	0.3435773
188	0x3e3a6ac2	0.18204787
189	0x3e9ebec4	0.31004918
190	0x3ed9d125	0.42542377
191	0x3e91c9e7	0.28474352
192	0x3e9b6963	0.3035384
193	0x3e936c45	0.2879354
194	0xbdb022fc	-0.08600423
195	0xbe0bfd1e	-0.13670775
196	0x3e6d7494	0.23189002
197	0xbe9f47b9	-0.31109408
198	0x3d706c43	0.058696996
199	0x3d9434c8	0.0723663
200	0xbd9e552f	-0.07731091
201	0x3e3fdc9d	0.18736501
202	0x3de8d262	0.11368252
203	0x3e98731a	0.29775316
204	0xbe91e3b4	-0.28494036
205	0x3cf39cf0	0.02973792
206	0xbe4b0729	-0.1982695
207	0x3de245ec	0.11048493
208	0xbe0379c1	-0.12839414
209	0xbed981ac	-0.42481744
210	0xbe493af4	-0.19651395
211	0x3e802af7	0.2503278
212	0xbe3c09eb	-0.18363158
213	0x3daefd9b	0.08544465
214	0xbdc9f3d0	-0.09860957
215	0xbe46b07d	-0.19403262
216	0x3e7097d1	0.23495413
217	0x3e8d77a7	0.2763035
218	0x3da8ced6	0.08242576
219	0x3ea8cf82	0.32970816
220	0xbe29021a	-0.16504708
221	0x3d094381	0.033511642
222	0xbec108fc	-0.37702167
223	0x3e372e83	0.17888837
224	0x3e85dfc8	0.26147294
225	0x3e75bb72	0.23997286
226	0x3e305957	0.1722158
227	0x3e367428	0.17817748
228	0x3e77eb9e	0.24210975
229	0x3e444a64	0.19169003
230	0x3eab2d21	0.33432868
231	0xbda41edc	-0.080136985
232	0x3e8feb60	0.28109264
233	0xbe056d43	-0.13029961
234	0x3d50b034	0.05094929
235	0x3de07fa8	0.109618485
236	0x3df69db7	0.120418005
237	0x3d651a2f	0.055933174
238	0x3d1774ca	0.036976613
239	0x3e21d7a9	0.15804924
240	0x3eac5e53	0.33665714
241	0xbd0c955f	-0.03432214
242	0x3e4ca4d5	0.19984753
243	0xbe8cf5fd	-0.27531424
244	0x3b1f562d	0.002431284
245	0xbd361d7e	-0.04446172
246	0xbc8d34a3	-0.017237013
247	0xbe376cf5	-0.17912658
248	0xbc4a6db4	-0.012355257
249	0x3e9ccd88	0.30625558
250	0x3dc8b4e4	0.09800127
251	0xbe691336	-0.22761235
252	0x3e181183	0.1485043
253	0xbe040cd9	-0.12895526
254	0x3eb22260	0.3479185
255	0x3ea9417c	0.33057773

network.0.bias f4 [128]
0	0xbd5c47d7	-0.05377945
1	0x3e683200	0.22675323
2	0xbe11c644	-0.14235789
3	0xbd207c57	-0.03918108
4	0x3e108e7e	0.14116856
5	0xbe760d9e	-0.24028632
6	0x3c1ff751	0.009763555
7	0x3e6c29e3	0.23062854
8	0x3d8ed8fc	0.0697498
9	0x3d900db6	0.07033865
10	0x3e5363a7	0.20643483
11	0xbcc1b257	-0.02364461
12	0xbebe5529	-0.37174347
13	0xbe86858a	-0.26273757
14	0x3ebd1275	0.36928144
15	0xbd80a52c	-0.06281504
16	0x3de2ef0a	0.11080749
17	0x3e074492	0.13209751
18	0x3e0fdb04	0.14048392
19	0x3e25e6b3	0.16201286
20	0xbdfdd23f	-0.12393617
21	0x3da20b0e	0.07912265
22	0x3d90733b	0.070532285
23	0xbde65984	-0.112475425
24	0xbb1dba27	-0.0024067254
25	0xbd738e7f	-0.059462067
26	0xbe944cb6	-0.28964776
27	0xbe837245	-0.25673118
28	0x3e952927	0.2913296
29	0xbe3355a4	-0.17513138
30	0x3ea0f2a3	0.31435117
31	0xbdd4cfa5	-0.103911676
32	0xbd821b72	-0.06352891
33	0xbd235bce	-0.039882474
34	0x3ebea53b	0.37235436
35	0xbc946caa	-0.018118221
36	0x3dce3d72	0.100703135
37	0x3e68e1f9	0.22742452
38	0xbe095a5b	-0.13413374
39	0xbe5396db	-0.20663016
40	0xbe92da3e	-0.2868213
41	0xbe113b82	-0.14182857
42	0xbe3144c0	-0.17311382
43	0x3e4172ed	0.18891497
44	0xbcaf0d3e	-0.021368619
45	0x3e70b7ad	0.23507567
46	0xbea7d31f	-0.3277826
47	0xbe8fd135	-0.280893
48	0xbd823c1c	-0.06359121
49	0x3e038b21	0.12846042
50	0x3de49686	0.111615226
51	0xbe6bc734	-0.23025209
52	0xbe6fd8f9	-0.23422612
53	0x3e955427	0.29165766
54	0x3e8a8311	0.2705312
55	0xbca3288a	-0.019916791
56	0x3e7d7721	0.24752475
57	0x3e0223b9	0.1270894
58	0xbd723308	-0.0591307
59	0x3c6908c2	0.014223279
60	0xbd166880	-0.036720753
61	0x3e977184	0.29578793
62	0xbe828202	-0.25489813
63	0xbe35c0a4	-0.17749268
64	0x3c8d71ef	0.017266242
65	0xbe950f39	-0.29113176
66	0xbe37eb33	-0.17960815
67	0x3dcb042b	0.09912904
68	0xbe9b0fec	-0.30285585
69	0x3e7c8ab3	0.24662285
70	0x3e25241f	0.1612706
71	0x3dd98ddb	0.1062276
72	0x3eacb23c	0.33729732
73	0xbcd3afb2	-0.025840614
74	0xbe07b395	-0.13252099
75	0xbe9a1ce1	-0.30100158
76	0x3da92f17	0.08260935
77	0xbdb6cc2e	-0.08925663
78	0x3e2b612a	0.16736284
79	0x3e6d38e4	0.23166233
80	0x3eb38765	0.35064235
81	0x3eae9d52	0.341044
82	0x3e82b969	0.25532082
83	0xbe447296	-0.19184336
84	0xbe488e7d	-0.19585605
85	0x3de300c0	0.110841274
86	0x3e3dd6fe	0.18539044
87	0xbd7222f0	-0.05911535
88	0xbe53b00b	-0.20672624
89	0xbe2b2978	-0.16715038
90	0x3e37efc6	0.1796256
91	0x3e3970c6	0.18109426
92	0xbdca4570	-0.098765254
93	0x3e40f36b	0.18842857
94	0xbe79bc22	-0.24388173
95	0x3e828c6d	0.2549776
96	0xbe9adeb3	-0.3024803
97	0x3e81b05f	0.25329873
98	0x3d438ea5	0.04774346
99	0xbdd8e260	-0.105900526
100	0x3d486d13	0.048932146
101	0xbe15291f	-0.14566468
102	0x3e8fdf82	0.2810021
103	0xbe9124db	-0.2834843
104	0xbc516036	-0.012779286
105	0xbd2d631a	-0.04233084
106	0xbcbd86e5	-0.023135612
107	0x3e990466	0.29886168
108	0x3e84de09	0.2595065
109	0x3e8824df	0.2659063
110	0xbeab2271	-0.33424714
111	0xbe10ddcf	-0.14147113
112	0xbea1636c	-0.31521165
113	0xbdf8e49c	-0.12152979
114	0xbdd1dbc4	-0.10246995
115	0xbe92c9c0	-0.28669548
116	0xbdf4f2ed	-0.11960397
117	0xbe814197	-0.25245354
118	0x3e216e6f	0.15764783
119	0xbe839bf7	-0.2570493
120	0xbe0656cd	-0.1311905
121	0xbd97c0af	-0.07409798
122	0xbe34656c	-0.17616814
123	0xbe0e284e	-0.13882563
124	0xbe932b45	-0.2874395
125	0xbe4fb392	-0.20283344
126	0x3de97af3	0.11400404
127	0xbe863b02	-0.26216894

network.2.weight f4 [128, 128]
0	0x3d83ae6d	0.064297535
1	0x3d403a95	0.04693087
2	0x3bdc8866	0.006730127
3	0xbcf5c2d4	-0.030000128
4	0x3dc60e74	0.096707255
5	0x3d4b8bd2	0.04969389
6	0xba78805e	-0.00094795774
7	0xbd37a57a	-0.044835545
8	0x3d2d3b73	0.042293023
9	0xbd393343	-0.045214903
10	0x3dc4897d	0.09596536
11	0x3c267836	0.010160496
12	0x3c8f122b	0.017464718
13	0xbd10eaf2	-0.03538031
14	0x3be83cb7	0.007087316
15	0xbdfe28bc	-0.12410113
16	0xbd0a439e	-0.03375589
17	0x3e018d63	0.12651591
18	0x3c8e459d	0.017367179
19	0x3d158df3	0.036512326
20	0xbd97d0f4	-0.074129015
21	0x3df01d82	0.11724378
22	0xba309d80	-0.00067373365
23	0xbd0dbe6e	-0.034605436
24	0x39dab127	0.0004171219
25	0x3d93e3b1	0.07221163
26	0x3def5486	0.116860434
27	0xbcd8b57e	-0.02645373
28	0xbe1bdc82	-0.15220836
29	0xbdb43859	-0.0879981
30	0xbda70f49	-0.08157212
31	0xbc8c6abc	-0.017140739
32	0xbd8320fe	-0.06402777
33	0x3ddba519	0.10724849
34	0xbca54dc3	-0.020178681
35	0xbb869f97	-0.00410838
36	0x3e13feca	0.14452663
37	0x3c33e871	0.010980711
38	0xbe0de0ff	-0.1385536
39	0x3cb20340	0.021730065
40	0x3dd6ad80	0.10482311
41	0x3df371b5	0.11886922
42	0x3e063745	0.13107021
43	0x3ce3f3c4	0.027826197
44	0xbdbef434	-0.09323922
45	0x3db4cea8	0.08828479
46	0xbd12c8c2	-0.03583599
47	0xbe00d4bd	-0.12581153
48	0x3dea2e8a	0.11434658
49	0x3d8a4e7e	0.067532524
50	0xbb70da04	-0.0036751041
51	0x3ce0b4fb	0.027430048
52	0x3d25ac17	0.04044732
53	0x3d96b710	0.07359135
54	0x3d92ea87	0.07173639
55	0x3d0dcc6e	0.034618787
56	0xbd3cbdde	-0.04607951
57	0x3da5c39c	0.0809395
58	0x3cd240b2	0.025665615
59	0xbd0caecd	-0.03434639
60	0x3de32d23	0.110925935
61	0xbdde7e65	-0.108639516
62	0x3d26ff7a	0.040770985
63	0xbd1247b5	-0.035712916
64	0xbd4c72b7	-0.049914088
65	0x3d0a9064	0.033829108
66	0xbe060050	-0.13086057
67	0xbc1e5b41	-0.009665311
68	0x3b29f4fa	0.002593337
69	0xbd867382	-0.06565
70	0xbd247d4e	-0.040158562
71	0x3c873e1e	0.016509112
72	0xbd3696df	-0.044577476
73	0x3c883360	0.01662606
74	0x3d1cd30e	0.038287215
75	0xbe03b569	-0.12862171
76	0xbcd26e65	-0.025687406
77	0xbcc3e189	-0.023911254
78	0x3e0b13e8	0.13581812
79	0xbd929c6c	-0.07158741
80	0xbd35323c	-0.04423736
81	0xbdd12091	-0.1021129
82	0xbd8262b7	-0.063664846
83	0x3c451e2d	0.01203112
84	0xbd72971b	-0.059226137
85	0x3cacd382	0.021096949
86	0x3d10f0fb	0.035386067
87	0x3db6f3cb	0.089332186
88	0xbd06e90b	-0.03293709
89	0xbd5036bd	-0.050833452
90	0xbd38422e	-0.04498499
91	0xbc3d66df	-0.011560171
92	0x3db4287c	0.08796784
93	0xbdde4da8	-0.108546555
94	0x3d8af3e0	0.06784797
95	0xbb84c0c2	-0.004051299
96	0x3de055c3	0.10953858
97	0xbd13b6f4	-0.03606315
98	0x3d05a750	0.032630265
99	0xbd62d96b	-0.055383127
100	0x3db7c32b	0.08972772
101	0xbd910ec6	-0.07082896
102	0xbc20cb34	-0.009814072
103	0xbd7363e7	-0.059421446
104	0x3d8a5f7b	0.06756493
105	0x3db85ff7	0.09002679
106	0x3b002cf7	0.001955805
107	0x3c44f492	0.012021201
108	0xbd9bc648	-0.076061785
109	0xbd4ef3d6	-0.05052551
110	0x3e1aa922	0.15103582
111	0x3ca59831	0.020214172
112	0xbdaaf820	-0.08348107
113	0x3cf99b46	0.030469548
114	0x3dbcb17f	0.09213542
115	0xbc0494a8	-0.008092083
116	0xbd0aa743	-0.03385092
117	0xbd600ce0	-0.05469978
118	0x3c7edb19	0.015555167
119	0x3ca7340e	0.020410564
120	0x3d19a4c4	0.03751065
121	0x3defbe25	0.11706189
122	0xbd7cb1cd	-0.061693
123	0x3de3545c	0.11100075
124	0xbc1136c4	-0.008863155
125	0x3d4823ff	0.048862454
126	0x3d19597f	0.037438866
127	0x3e29f423	0.16597037
128	0xbd7b7aa0	-0.06139624
129	0xbcada0e3	-0.02119488
130	0xbd5912d7	-0.052996483
131	0x3d572dd0	0.052533925
132	0x3deffcbe	0.117181286
133	0xbd40a95e	-0.04703652
134	0xbd246323	-0.040133607
135	0xbccf5bd5	-0.025312344
136	0xbd5a45dc	-0.05328928
137	0x3d0bc4e5	0.03412332
138	0xbd9748dd	-0.073869444
139	0x3d9915bf	0.07474851
140	0x3cfdd2e2	0.030984346
141	0x3d9b779d	0.07591174
142	0x3d77796f	0.060418542
143	0x3bfd5ca6	0.007731992
144	0x3df27bbb	0.11840006
145	0x3ceb6ff6	0.02873991
146	0xbd2a44f1	-0.041569654
147	0x3dc3f63f	0.09568452
148	0x3cc4cce4	0.02402348
149	0x3d37655a	0.04477439
150	0xbd046116	-0.03231915
151	0x3d0b2f4e	0.03398066
152	0xbd90c0c2	-0.07068016
153	0xbd461cda	-0.04836736
154	0xbe1d827d	-0.15381809
155	0x3dee4472	0.11634149
156	0x3dc9121f	0.098179094
157	0x3b9b9aee	0.0047486937
158	0xbd76f533	-0.060292434
159	0xbcfbabd0	-0.030721575
160	0x3d8c1135	0.068392195
161	0x3d414a2b	0.047189873
162	0x3d52c04d	0.051452924
163	0xbc8190fa	-0.0158162
164	0xbd1056cf	-0.035239037
165	0x3d401d71	0.046903078
166	0x3dae025b	0.08496543
167	0xbc68fabc	-0.014219936
168	0xbdca91e0	-0.09891105
169	0x3e0788cc	0.13235778
170	0x3c1dbb99	0.009627246
171	0x3d39fa3d	0.04540466
172	0xbd132542	-0.035924204
173	0xbcaeca8a	-0.021336813
174	0x3a0ba496	0.00053269544
175	0xbcec2dcd	-0.028830433
176	0x3c57ca54	0.013170797
177	0xbc2828de	-0.01026365
178	0x3d8704ac	0.06592688
179	0xbc880857	-0.01660554
180	0x3d79e364	0.061007872
181	0xbcfb46ba	-0.030673373
182	0xbdbdfab9	-0.09276337
183	0x3bd2c001	0.00643158
184	0xbd18c8d1	-0.03730089
185	0x3d8cd547	0.06876617
186	0xbdae4ca6	-0.08510713
187	0xbcf88fbd	-0.030341977
188	0xbc8f0f79	-0.017463433
189	0x3dbb02e4	0.09131411
190	0xbddf70f0	-0.10910213
191	0xbd7ad499	-0.061237905
192	0xbcfb266f	-0.030657975
193	0xbd654f2c	-0.055983707
194	0x3db6bdfa	0.08922954
195	0xbd338739	-0.04383013
196	0x3d03d738	0.03218767
197	0x3dc41eea	0.09576209
198	0x3db9a9f9	0.09065623
199	0x3d78f8cd	0.06078415
200	0xbc60050e	-0.01367308
201	0xbd274bf6	-0.040843926
202	0x3bdbaa08	0.006703619
203	0xbc78eebf	-0.01519364
204	0xbabfaeca	-0.0014624235
205	0x3d781bd1	0.060573403
206	0xbc97a2c8	-0.018510237
207	0x3d812a34	0.06306878
208	0x3d981c9b	0.07427331
209	0xbd278544	-0.040898576
210	0x3d480963	0.048837077
211	0x3d0db961	0.03460062
212	0xbdad148e	-0.08451186
213	0x3d5d8153	0.05407841
214	0xbdc85c2f	-0.097832076
215	0xbc01b161	-0.007915826
216	0xbccdc2ed	-0.025117362
217	0x3d4c834b	0.0499299
218	0x3d837a9c	0.0641987
219	0x3d1acf5d	0.037795413
220	0xbbafe2e4	-0.0053676236
221	0xbc388040	-0.011261046
222	0xbd8b27df	-0.06794714
223	0x3d2cf405	0.042224903
224	0x3d19e3fc	0.03757094
225	0x3d1d6324	0.038424626
226	0x3dad5217	0.08462923
227	0x3daa28e7	0.08308583
228	0x3b3d2f90	0.002886746
229	0x3d07157d	0.032979477
230	0x3d9131b4	0.07089558
231	0xbd176b9f	-0.03696787
232	0x3d0ad8af	0.03389805
233	0x3da05a34	0.07829705
234	0x3cc33ed6	0.023833673
235	0x3cf1674b	0.0294682
236	0xbd850b9f	-0.06496357
237	0x3df3f266	0.11911468
238	0x3cfa4d57	0.030554457
239	0xbe153f44	-0.14574915
240	0xbd2decff	-0.042462345
241	0xbd76897b	-0.060189705
242	0x3d5989d3	0.053109955
243	0x3d1575e9	0.0364894
244	0xbccde260	-0.025132358
245	0x3d9bfafb	0.0761623
246	0xbc75e9c6	-0.015009349
247	0x3da52963	0.080645345
248	0xbcdbd663	-0.026835626
249	0xbdb8363c	-0.089947194
250	0x3d9bd761	0.0760944
251	0xbd532621	-0.051550034
252	0xbd123a71	-0.035700265
253	0x3c3491e1	0.011021108
254	0xbd993b39	-0.07481999
255	0xbb98ced7	-0.004663329

network.2.bias f4 [128]
0	0x3dded575	0.108805574
1	0x3d856fd3	0.065154694
2	0x3d2ebb57	0.04265913
3	0xba3cdcd4	-0.0007204537
4	0x3d4dcbd6	0.05024322
5	0xbd4202bd	-0.047365893
6	0x3dd3dc1f	0.10344719
7	0xbd7970c8	-0.060898572
8	0x3d779d90	0.060452998
9	0xbd0d93e1	-0.034564856
10	0x3c147f25	0.009063517
11	0xbd2f3cea	-0.0427827
12	0xbc611a37	-0.01373916
13	0xbd4ed4ac	-0.05049579
14	0x3cb7ec51	0.022451552
15	0x3cc5dabd	0.024152154
16	0x3d99421c	0.074833125
17	0xbcefea07	-0.029286398
18	0xbc5b7065	-0.013393496
19	0x3dbf1950	0.09331
20	0x3d15c1b6	0.03656169
21	0x3d1931b7	0.037400927
22	0x3db72219	0.089420505
23	0x3d80bf7f	0.06286525
24	0x3de8d1fa	0.11368175
25	0x3db29ff3	0.08721914
26	0x3d716cbb	0.058941584
27	0x3cb79c66	0.022413444
28	0x3c7fc7c9	0.015611597
29	0x3d0f3e90	0.034971774
30	0x3de04920	0.109514475
31	0x3d8aff33	0.06786957
32	0x3c920c9c	0.017828278
33	0xbd44670c	-0.047949836
34	0x3dafd4b8	0.08585495
35	0xbd4881f0	-0.048952043
36	0x3d98402f	0.07434117
37	0x3dd6a742	0.10481121
38	0x3d77ff4e	0.060546212
39	0x3bef5c8e	0.0073047346
40	0xbc1d6707	-0.009607083
41	0xbc9d6dc7	-0.019217385
42	0x3de9b008	0.114105284
43	0xbc11bfef	-0.008895858
44	0xbcbdb6d6	-0.023158472
45	0xbd1c61a8	-0.03817907
46	0xbcf69544	-0.030100472
47	0xbc884175	-0.016632775
48	0x3d8d6a21	0.06905008
49	0x3de2a22e	0.110660896
50	0x3d982ef1	0.07430828
51	0x3d73162d	0.05934732
52	0xbcf1e26f	-0.029526917
53	0x3ca69167	0.020333005
54	0x3da86829	0.08222992
55	0x3da4a850	0.080399156
56	0xbc95f6b7	-0.01830612
57	0x3d4dcfb6	0.050246917
58	0xbd9463e5	-0.07245616
59	0x3d23e248	0.04001072
60	0x3dcc4416	0.09973924
61	0xbdcb1a05	-0.09917072
62	0xbd1840a5	-0.037171025
63	0xbc2befe2	-0.010494204
64	0xbccbafc9	-0.024864094
65	0x3d1e83fc	0.03870009
66	0xbbcb4a6d	-0.0062039406
67	0xbc43bd5e	-0.011947004
68	0xbd6fd3a0	-0.05855143
69	0x3dadccab	0.08486303
70	0x3db6ff65	0.089354314
71	0xbd27a593	-0.04092939
72	0x3db36ace	0.08760606
73	0xbd2a0ddb	-0.04151712
74	0xbd05ce22	-0.032667287
75	0x3dc345e3	0.09534814
76	0x3d963341	0.07333995
77	0xbd140272	-0.036135145
78	0xbb6f28d8	-0.003649285
79	0xbcd9c633	-0.026583767
80	0x3dd20c8c	0.102562994
81	0x3bbc50f2	0.005746954
82	0x3db33133	0.087496184
83	0x3d027953	0.031853985
84	0x3d6e1d66	0.058133505
85	0xbc99793b	-0.018734565
86	0xbd3f256c	-0.046666548
87	0xbd168561	-0.036748294
88	0x3c58a9b6	0.013224056
89	0x3c343fa1	0.011001498
90	0xbd3312e2	-0.04371918
91	0x3d93203b	0.07183882
92	0xbd79f052	-0.061020203
93	0xbd2ea6d4	-0.04263957
94	0xbb5c81e5	-0.003364676
95	0xbd0b1a00	-0.033960342
96	0x3c174f69	0.009235241
97	0x3dc30cc3	0.095239185
98	0xbd48b650	-0.04900199
99	0x3dd35710	0.1031934
100	0x3d3ca6a0	0.046057343
101	0xbdd0f7e2	-0.1020353
102	0x3ddad545	0.10685209
103	0xbd32806f	-0.043579515
104	0x3d19b764	0.03752841
105	0x3d4f872f	0.05066603
106	0x3d666a95	0.05625399
107	0x3d839d7c	0.06426522
108	0x3d4c5d72	0.049893804
109	0x3c8101d6	0.015747946
110	0x3b0f5fbf	0.0021877137
111	0x3cce4345	0.025178561
112	0x3d245947	0.040124204
113	0x3da8e960	0.08247638
114	0x3de2f1bb	0.11081263
115	0xbb66f67b	-0.0035242129
116	0xbd2928d8	-0.041298717
117	0xbd80bfe9	-0.06286604
118	0xbc8239ca	-0.015896697
119	0xbd0f9cbb	-0.03506158
120	0x3d846841	0.06465197
121	0xbdb0f5c3	-0.08640625
122	0xbd79a2bc	-0.06094621
123	0xbd6b2164	-0.05740489
124	0x3d1d9e9b	0.038481336
125	0xbd2ccd74	-0.042188123
126	0xbd58a4ad	-0.052891422
127	0xbd347d77	-0.044064965

network.4.weight f4 [1, 128]
0	0x3d8335fc	0.06406781
1	0xbdc487f9	-0.09596247
2	0x3d8221a3	0.06354072
3	0x3df818d0	0.121141076
4	0xbd3ce816	-0.046119772
5	0xbd7a5da1	-0.061124448
6	0xbdec62e4	-0.115422994
7	0x3d9d7eb9	0.07690186
8	0xbd9c951d	-0.076456286
9	0xbde3d241	-0.11124087
10	0xbd5f2f6d	-0.054488588
11	0x3d9f5acd	0.07780991
12	0xbddb258c	-0.10700521
13	0xbe538d38	-0.2065934
14	0x3deca13a	0.11554189
15	0x3dfe1dca	0.124080256
16	0x3d4486d5	0.04798015
17	0x3d313568	0.043263823
18	0xbdfe163e	-0.12406586
19	0x3d6ea931	0.058266822
20	0x3d63d79f	0.055625554
21	0x3d84d54f	0.06485998
22	0x3da07b25	0.07835988
23	0x3d86e3cb	0.06586417
24	0xbd625772	-0.055259176
25	0xbd696083	-0.056976806
26	0x3dbcfc82	0.092278495
27	0x3d85255a	0.06501265
28	0xbd7ce77b	-0.061744194
29	0x3d777689	0.06041578
30	0xbd176212	-0.03695876
31	0xbd5646bc	-0.05231355
32	0xbd00a7f2	-0.031410165
33	0xbaf3c9e1	-0.0018599593
34	0xbdfd6408	-0.12372595
35	0xbe080581	-0.1328335
36	0xbdafee54	-0.08590379
37	0xbd8b4980	-0.068011284
38	0x3d99b906	0.075059935
39	0xbd7cc411	-0.06171042
40	0x3c8fa478	0.01753448
41	0x3d7f6969	0.062356386
42	0x3d81fdca	0.063472345
43	0x3d70d54c	0.058797166
44	0x3d53083e	0.051521532
45	0xbe222b99	-0.15836944
46	0xbdaf470d	-0.08558474
47	0x3d64b0a7	0.05583253
48	0xbd3ed7b1	-0.046592418
49	0xbda664e9	-0.08124716
50	0xbdbdf94f	-0.092760675
51	0xbe0023cc	-0.12513655
52	0x3dd19e37	0.10235255
53	0x3e022b18	0.12711751
54	0x3e0858cc	0.13315123
55	0xbde690ae	-0.11258064
56	0x3be586b4	0.0070045833
57	0xbdd478f3	-0.10374632
58	0x3d16facc	0.036860272
59	0xbd9feabf	-0.07808446
60	0xbdef728c	-0.1169177
61	0xbda7f3ee	-0.08200823
62	0x3bbce9b1	0.005765163
63	0x3dc2fd01	0.09520913
64	0x3cce5e7d	0.02519154
65	0x3d82bacf	0.06383287
66	0xbdae91ad	-0.08523879
67	0xbd4cb2ec	-0.04997532
68	0x3d3dcd89	0.04633859
69	0xbd2a1e91	-0.041533057
70	0xbd68c6da	-0.056830265
71	0x3df2c924	0.11854771
72	0xbdbed8c8	-0.093186915
73	0xbdb3e4b1	-0.08783854
74	0x3d9d02e0	0.07666564
75	0x3e047d05	0.12938316
76	0x3d4d7ba9	0.05016676
77	0x3e22dd95	0.1590484
78	0xbdec1c6b	-0.11528858
79	0xbdbfa78d	-0.0935813
80	0xbd5e8c93	-0.05433328
81	0x3db0f501	0.08640481
82	0xbdb40d51	-0.087916024
83	0x3dfc3d17	0.123163395
84	0x3dcc6a2f	0.099811904
85	0x3e389571	0.18025757
86	0x3da9cb47	0.08290725
87	0xbdc21cb9	-0.09478135
88	0x3da66d71	0.08126343
89	0x3dc71349	0.09720475
90	0xbdf350a0	-0.118806124
91	0x3d850c77	0.06496518
92	0x3e100e29	0.14067902
93	0xbb58af16	-0.0033063344
94	0x3ddca82d	0.107742645
95	0xbdc9bd8d	-0.09850607
96	0xbd9532a2	-0.07285048
97	0x3d79ab07	0.06095412
98	0x3b8ea443	0.0043530776
99	0xbd641235	-0.055681426
100	0xbd11f498	-0.035633653
101	0x3d30b4d2	0.043141194
102	0xbdbb7020	-0.091522455
103	0xbd13f6c5	-0.03612401
104	0x3de28dc3	0.11062195
105	0xbda2febe	-0.079587445
106	0xbd306f85	-0.043075103
107	0x3dfe8d35	0.12429277
108	0x3e2abf62	0.16674569
109	0xbe07589b	-0.13217394
110	0xbdc11e70	-0.094296336
111	0xbdd69774	-0.10478106
112	0x3d2f675f	0.04282319
113	0xbd98eb06	-0.07466702
114	0xbd9fc4d1	-0.078012116
115	0x3cd7db54	0.026349701
116	0x3e097155	0.13422139
117	0xbd519f59	-0.051177356
118	0xbdae0bc8	-0.08498341
119	0xbd3acb51	-0.045604054
120	0xbda87148	-0.08224732
121	0x3d1835be	0.037160628
122	0x3dbac71d	0.09120009
123	0xbd8d055a	-0.06885786
124	0xbdf99d66	-0.121882245
125	0xbdb844a8	-0.0899747
126	0xbdfdc6e0	-0.12391448
127	0x3db39a00	0.087696075
